models/pytorch_beer_model.pt (torch, 348917 bytes, 14 tensors)

weight f4 [512, 7]
000000 0c 41 5d 3e 89 dc 43 be 7e 9d db 3e 1d 5e d8 3d
       0.21606845 -0.19127096 0.42893595 0.10564826
000010 d2 9f 7a bd 5f 17 98 be 9d f9 c2 3e 72 e6 5d 3f
       -0.061187573 -0.2970533 0.38081065 0.86679757
000020 a0 1d 22 be 2a 1f 27 bd 74 78 af bc b6 ee f3 bd
       -0.15831614 -0.040801205 -0.021419741 -0.11910765
000030 f2 df ea 3d e5 72 44 be 53 ed 95 bd ad c2 b7 bc
       0.114684954 -0.19184454 -0.073206566 -0.022431696
000040 29 98 da bd 4a 5d e8 bc 70 53 a5 bd b4 01 2f 3e
       -0.106735535 -0.028364796 -0.08072555 0.17090493
000050 16 73 cd bf b4 a1 e8 3c 75 0a e2 3d 07 c9 3c be
       -1.6050746 0.028397419 0.11037151 -0.18436061
000060 93 f4 95 3e 0c c2 95 3e 53 33 e6 be 3c de 94 3c
       0.29288158 0.2924961 -0.44961032 0.018172376
000070 f2 af 23 bb b7 f7 0e 3e e7 01 93 be 9f 16 3a bd
       -0.0024976698 0.13961683 -0.2871239 -0.04543173
000080 a4 98 54 be 5f 92 27 be d7 17 3d 3f cd 29 50 be
       -0.20761353 -0.1636443 0.738645 -0.20328446
000090 2c 5f e6 3d 25 ed ec be 0b 3d 0b 3e 96 5c 2c 3e
       0.11248621 -0.46274677 0.13597505 0.16832194
0000a0 f8 83 eb 3d fa 5e d9 3b 1f 7a 41 be 5e 72 35 bd
       0.114997804 0.0066336365 -0.18894242 -0.044298522
0000b0 ca 6d a4 be 08 83 b4 3d bb 00 18 3e 2c a7 11 be
       -0.32115012 0.08814055 0.14844029 -0.14223927
0000c0 20 66 02 bf b0 13 af be e6 74 a3 3e a1 9e 15 be
       -0.5093708 -0.34194708 0.31925124 -0.14611293
0000d0 47 c4 78 3d b4 97 8d be 35 ab a3 be f2 06 f9 bd
       0.06073406 -0.27654803 -0.31966558 -0.12159528
0000e0 8d d8 05 3f 43 f9 b4 3e f5 99 8e 3e d7 94 96 be
       0.52283555 0.35346422 0.27851835 -0.2941043
0000f0 29 b6 05 3e 57 66 5e bd 89 f8 13 bc ac 5b 02 be
       0.1305777 -0.054296818 -0.009031423 -0.12730283
000100 91 16 5e be c4 18 97 be 07 d6 89 be 58 d1 29 bd
       -0.21688296 -0.29511082 -0.26921102 -0.04145941
000110 da 8b e4 bc 03 0d d6 be f3 20 8a bf 60 b5 96 bd
       -0.027898718 -0.41806802 -1.0791305 -0.07358813
000120 dc aa e2 bd 8e f1 7c 3b 56 19 d5 bd 3b 40 94 3d
       -0.11067745 0.0038596126 -0.10405223 0.072388135
000130 29 12 dc 3b 4f 5f 1b 3f 2e a0 be be e5 81 92 be
       0.006716032 0.60692304 -0.37231582 -0.28614727
000140 0f 63 80 3e 67 03 ec bd 45 9b 8b 3e a3 98 9e 3e
       0.25075576 -0.115240864 0.272669 0.30975828
000150 16 0b db be df 18 ca 3c d8 29 df 3d d0 19 a6 3d
       -0.42781895 0.024670063 0.10896653 0.08110392
000160 49 b7 4b bd ac bc 48 3d f6 81 b1 3e 99 1c 61 bd
       -0.04973534 0.049008057 0.34669465 -0.054958913
000170 85 e7 6b be 36 c0 d2 3e 27 11 65 be 51 9c 71 3e
       -0.23037536 0.4116227 -0.22369824 0.23594786
000180 b0 56 91 3d a0 f0 33 be 82 a5 a5 be a5 fe f6 bb
       0.070966125 -0.1757226 -0.32352835 -0.00753768
000190 02 08 87 3e de c7 0d 3e e2 7c d1 bd 3e 44 0b 3e
       0.26373297 0.13845775 -0.10228898 0.13600251
0001a0 07 3e fb 3e 8e 27 0b be 3e 8b e1 3d 18 1b f8 bc
       0.4907076 -0.13589308 0.110128865 -0.030286357
0001b0 44 94 a4 3d b5 f4 ad bd ad 47 2f bc 0c 06 a8 bf
       0.08036092 -0.0849394 -0.010698241 -1.3126845
0001c0 56 f9 f9 3d 35 08 c9 bc 3c 8c b1 bd ee 67 7d be
       0.1220576 -0.024540046 -0.08669326 -0.24746677
0001d0 82 c7 b7 be c2 73 9e 3e f6 02 0f 3f c1 27 9a be
       -0.358944 0.3094769 0.55863893 -0.30108455
0001e0 15 4b 26 3e 4b 96 ae be 6c 1c 87 be 24 18 55 3e
       0.16239579 -0.3409904 -0.26388872 0.2080999
0001f0 8a f2 0e 3e a1 16 3e 3f 11 b9 16 40 fa 3e 4f ba
       0.13959709 0.7425328 2.3550456 -0.00079058076
000200 b5 5f 48 3d fd e6 70 3d 84 4a 28 3d 54 68 e6 bc
       0.0489194 0.058814038 0.04108669 -0.02812592
000210 86 5a b6 3b 87 b1 c5 bd bc b7 e7 3d e8 f3 7f bd
       0.0055649905 -0.09653001 0.113143414 -0.062488467
000220 97 24 68 3d e8 7a a7 be d3 a2 c4 3e f4 eb 3b 3e
       0.05667552 -0.32710958 0.38405475 0.18351728
000230 ca 88 36 bd fe 29 65 be 13 cc 28 3e 29 32 a2 3d
       -0.044564046 -0.223793 0.16484098 0.079197235
000240 2c 6f 30 bd 6d 82 9f 3c a8 78 69 bf a6 bc 2f 3f
       -0.04307477 0.019471372 -0.9119973 0.6864723
000250 ea 3f 39 bc d5 10 51 bc 6c 43 17 3c 50 8d d3 bc
       -0.011306742 -0.012760361 0.009232383 -0.025824219
000260 83 9c 90 3b 20 cd 23 bf 12 20 a2 3f 09 92 00 3d
       0.004413189 -0.6398487 1.2666037 0.03138927
000270 aa 80 84 bd 4a 85 62 bc cb 0e fb bc 13 8a b6 bd
       -0.06469853 -0.013825724 -0.030646702 -0.08913054
000280 77 46 ea bc 38 3e 8f bd 4d e3 86 3e c7 0f ed 3d
       -0.028598053 -0.06994289 0.26345292 0.11575275
000290 25 6c df bc f8 69 0d be e8 ee fe bd 0f 98 a4 bf
       -0.027273247 -0.13809955 -0.124479115 -1.2858905
0002a0 26 a3 86 be 70 94 e8 3d d1 6b b3 be 2b f3 dd 3c
       -0.26296347 0.11356437 -0.35043195 0.02709349
0002b0 42 e0 70 be 94 f9 c3 3d ee e7 92 be 6e b5 85 3f
       -0.23523048 0.095690876 -0.28692573 1.0445993
0002c0 17 8c 1c bd 0d a9 bf 3d fa 46 8f 3c 3b f3 9a 3c
       -0.038219538 0.09358416 0.017489899 0.01891481
0002d0 ff 68 f9 bc 87 76 a5 be d3 a3 08 bf 94 cb 8d be
       -0.030445574 -0.32316992 -0.53374976 -0.2769438
0002e0 b2 d4 09 be 36 52 cb 3d c7 06 14 be ce 3b e1 3d
       -0.13460043 0.0992779 -0.1445571 0.10997735
0002f0 3d 5d 08 3f df 17 8b 3c 8f b4 82 bc ee 48 d0 3c
       0.5326727 0.016979156 -0.015955238 0.0254254
000300 00 cb 08 3f db 73 1d 3d 4b 55 dc 3b 37 7f c4 be
       0.53434753 0.038440567 0.006724035 -0.38378307
000310 39 5d b8 3e 6e 8b 5d be 98 12 ea 3d c2 f0 d2 3e
       0.36008623 -0.2163522 0.11429328 0.4119931
000320 12 7f 11 3e ff 98 92 3e 47 89 1b 3d 03 e6 ae be
       0.1420863 0.28632352 0.037972715 -0.3415986
000330 81 dc 4f 3d ad a8 9f bc f0 43 16 bc 49 14 11 bd
       0.0507474 -0.01948961 -0.009171471 -0.035419736
000340 ca e7 1b bc 65 da 2d 3f ce f4 e4 3e 17 4a 5e 3d
       -0.009515712 0.6791137 0.4471802 0.054269876
000350 23 7a 55 bd 60 d0 bd bd 60 2b 99 3b f7 83 4d 3e
       -0.05211843 -0.0926826 0.00467436 0.20069872
000360 15 51 49 bf f4 77 98 bd b7 38 96 3e 53 cc e1 3e
       -0.78639346 -0.07444754 0.29340145 0.441012
000370 e6 05 25 be 6c ef 94 be 0b 1c 9d be 35 72 d5 be
       -0.16115531 -0.29088914 -0.30685458 -0.41688696
000380 af 3d 9b 3f e1 ce 59 3d 7a 2f 84 bd e5 e5 d9 3d
       1.2128199 0.05317581 -0.06454368 0.10639552
000390 be ac 75 bd ff ab 80 bc 2e 1c 50 3e 20 d3 90 3e
       -0.059979193 -0.015707014 0.2032325 0.28286076
0003a0 77 86 9b b9 2a 88 01 3e a0 31 a1 3d c3 ec 15 be
       -0.00029664088 0.12649599 0.07870793 -0.14641099
0003b0 7c 0b 98 be df f6 0d 3f 86 7c 14 3f 14 e6 cc 3c
       -0.29696262 0.5545482 0.5800251 0.025012054
0003c0 e4 be bc 3c 6b 45 56 bd b4 f4 ee bc 13 a2 13 3d
       0.023040242 -0.052312296 -0.029169418 0.036043238
0003d0 5c d0 ec 3e 1e f0 46 3e c8 d8 50 3d 78 24 c1 be
       0.46252716 0.19427535 0.05098799 -0.37723136
0003e0 09 d9 90 3a 7c 1e 49 3d 3f 64 4e 3e 18 4a dc bd
       0.001105101 0.049101338 0.20155428 -0.1075632
0003f0 13 99 42 3d 4a 19 2a 3e a5 19 91 3d ca ac 82 be
       0.047509264 0.1661121 0.070849694 -0.25522453

bias f4 [512]
000000 a8 0c 8e 3e 14 e7 71 be 66 3c e7 bd c9 9b f0 3d
       0.2774403 -0.23623306 -0.11290817 0.11748464
000010 f4 30 bc be 74 4b 90 be fb 49 45 3e 76 24 66 3d
       -0.36756098 -0.28182566 0.19266503 0.056187116
000020 30 8d 56 3d 19 be bb 3e d3 34 0c be 8f 55 a0 3e
       0.05238074 0.3666847 -0.13692026 0.31315276
000030 9c 96 07 bd e9 25 97 3e f1 df 84 3e 5f a5 9a 3b
       -0.033102617 0.2952111 0.25952104 0.004719421
000040 bd f2 b2 bc 30 03 8f 3e 02 c7 9b be 7b e2 7c be
       -0.021844262 0.2793212 -0.30425268 -0.2469577
000050 4f 81 5d 3e 28 d4 21 be d4 28 50 be 80 fa a7 3e
       0.21631359 -0.15803587 -0.20328075 0.32808304
000060 3f 9d 8a be dd 91 9d 3d 0d 38 5a be 0a 5e 08 be
       -0.27073094 0.07693837 -0.21310444 -0.13317123
000070 76 ac 0e be 8f 91 5f bd 5c 37 b2 3d ce 43 97 3e
       -0.13932976 -0.054582175 0.08701965 0.29543918
000080 b1 56 b7 be 65 51 a7 be ae 1d 21 3e 86 ac 55 3e
       -0.35808328 -0.32679287 0.15733978 0.20866594
000090 e2 ee cc 3d 6d fd c9 be 01 de 89 3d ab 2b e7 3d
       0.10006501 -0.3945116 0.06731797 0.11287626
0000a0 8d 99 87 3e f4 5c a2 be 30 a1 9c 3e 71 d1 47 3e
       0.26484337 -0.31711543 0.30591726 0.1951349
0000b0 0f 77 63 3d dc f2 a9 bd ed 59 4b be 8b a5 ae be
       0.055533465 -0.08298275 -0.19858523 -0.34110674
0000c0 03 43 8e bd ba eb 44 be 1b 6a 98 be 8e ea af bc
       -0.06946375 -0.19230548 -0.29768452 -0.02147415
0000d0 e8 e1 80 3e 38 9c 41 be 65 01 c8 be dd a5 18 be
       0.25172353 -0.18907249 -0.39063564 -0.14907022
0000e0 48 02 28 3e 2b 6b 71 be 27 b0 f7 bd 36 fd b1 3e
       0.1640712 -0.23576038 -0.12094145 0.34763497
0000f0 ff 68 6a 3e 85 ea bc 3e 5f 9a c3 3c 1d f2 6d 3e
       0.22891615 0.36897674 0.02387732 0.2323689
000100 5d 0a 4d be 41 0a f1 bd e2 5c 0d 3d 81 6a 67 3e
       -0.20023485 -0.11769534 0.034512408 0.22599222
000110 11 14 ad 3d 6d 5c 15 3e 37 6b dc bd 0a f5 0f be
       0.08451093 0.14586039 -0.10762637 -0.14058319
000120 c1 39 33 3e 99 49 53 be c1 45 a1 be b0 cd a9 3e
       0.175025 -0.20633544 -0.3149853 0.3316474
000130 cf 82 8d 3e de 78 70 bd 69 00 05 3e 4a fb 94 3d
       0.27638862 -0.058709018 0.12988438 0.07274492
000140 ba 5b 96 be 6c e6 50 be 3e 8a e4 bc b8 26 28 3e
       -0.29366857 -0.20400399 -0.02789795 0.1642102
000150 87 11 e3 bd 28 f3 c3 3c c3 53 35 3e f1 37 16 3e
       -0.110873275 0.023919657 0.17707734 0.14669777
000160 2f 26 aa 3e b1 0c 88 3e bd 08 ad 3e 03 15 49 be
       0.33232257 0.26572183 0.3379573 -0.19636922
000170 ba 92 25 3e 30 5e b9 3e 94 6e 65 be f7 a6 3b be
       0.16169253 0.36204672 -0.22405463 -0.18325411
000180 d2 a2 be be 4d fb 8f be 80 b5 a3 be 34 8c 3e be
       -0.37233597 -0.28121415 -0.3197441 -0.18608171
000190 fe 01 b5 3e 73 6d 9d bd ae 83 7b 3e 59 c3 33 3e
       0.35353082 -0.076868914 0.2456195 0.17554988
0001a0 0b 31 60 3c be a0 64 be c6 23 5f 3e c8 b0 f2 3d
       0.013683568 -0.22326943 0.2179099 0.118501246
0001b0 60 a5 a8 3c 6b 75 47 3e 16 bd c8 3c 6f 53 8c 3d
       0.02058667 0.19478385 0.024504226 0.06851851
0001c0 ef 52 2a be 51 52 97 3e e3 98 4e 3e 1b 3b 55 3e
       -0.16633199 0.2955499 0.20175509 0.20823328
0001d0 be 80 b2 be 4a e6 a5 be 89 b3 41 bc fc 82 b6 3e
       -0.34863847 -0.3240226 -0.01182259 0.35646808
0001e0 24 fd bf 3e 0a b6 17 be 20 94 27 3e 2d 4c 52 be
       0.37497818 -0.14815536 0.16365099 -0.20536871
0001f0 18 db 87 3c e7 09 8f be 09 bd ba be 00 c8 68 be
       0.016583964 -0.27937242 -0.36472347 -0.22732544
000200 9a 14 80 be 57 25 fa bd ef 99 a6 3e f2 2d 88 bd
       -0.25015718 -0.12214153 0.32539317 -0.066493884
000210 19 67 96 be 94 e6 19 3d 55 98 75 be 8c a4 0e be
       -0.29375532 0.037573412 -0.23983891 -0.13929957
000220 d0 78 72 be 4e cd 94 be 1f d5 81 3e 6a 28 62 3e
       -0.23678899 -0.29062885 0.2535791 0.22085729
000230 8b 58 5f bc 60 c0 1e 3d cd ed ba be fe a8 a7 3e
       -0.01363195 0.03875768 -0.36509553 0.32746118
000240 81 f0 1a 3e 68 28 dd bd 59 14 84 be 63 16 25 bd
       0.15130807 -0.107987225 -0.25796774 -0.040304553
000250 9d 16 22 be a6 67 aa 3e f8 2c 39 bd ff 96 aa 3d
       -0.15828939 0.33282202 -0.0452089 0.083295815
000260 a6 39 97 be ed a0 bc be 8e ab 53 3e 7f 83 ae be
       -0.2953617 -0.36841527 0.20670912 -0.340847
000270 84 c9 87 3e 78 6f 51 3e 7d fb 9f 3d 85 d4 78 bd
       0.26520932 0.20452678 0.078116395 -0.06074955
000280 50 5e ba be 52 95 69 3c fe 1e 7a 3d bc 76 6c bd
       -0.3640008 0.014256792 0.061064713 -0.05773042
000290 ba ef 0f 3e 6f e8 18 3c 0e 7a e0 bd 8f 27 19 be
       0.14056292 0.00933276 -0.1096078 -0.14956497
0002a0 da 26 2d be 69 ba 88 be 38 0a 85 3e 8d 0a 75 3d
       -0.16909352 -0.2670472 0.2598436 0.059824515
0002b0 aa 49 3f be 72 0c a7 bd d4 76 82 be 50 0c 3b be
       -0.18680444 -0.08156671 -0.25481284 -0.18266416
0002c0 92 e4 45 3e 01 a7 9e be de 81 4d 3e ea ee 32 3e
       0.19325474 -0.3098679 0.20069072 0.17473951
0002d0 26 b9 24 3e 44 06 a8 3e 01 71 b6 3d 77 18 87 3e
       0.16086254 0.3281728 0.089082725 0.26385853
0002e0 91 e7 65 be de 8e b7 3e 8e d5 92 be b7 ca 8b 3e
       -0.22451617 0.35851187 -0.28678554 0.27303097
0002f0 76 12 65 3e 4b ea 95 3c 22 9e 25 3d 31 39 46 be
       0.22370324 0.018300196 0.04043401 -0.19357754
000300 db 7c 88 be 71 28 58 bd 9b 88 7d be 02 d4 ff 3d
       -0.26657757 -0.052772943 -0.24759142 0.12491609
000310 6f b6 97 3d a7 6d b3 be 7f 02 78 be 88 29 b1 3e
       0.07407843 -0.35044596 -0.24219702 0.34601998
000320 19 11 85 be 31 a7 a6 be 99 80 a5 3d b6 6d 5f bd
       -0.25989607 -0.32549432 0.08081169 -0.054547988
000330 dd 44 ae be 21 84 15 3e 0b a7 92 be 3d f3 96 3d
       -0.34036914 0.14601184 -0.2864307 0.07370613
000340 10 0d 9c be 9a 16 0f be d7 05 35 bd 9f 53 64 be
       -0.30478716 -0.13973466 -0.044195022 -0.22297524
000350 7e d4 a1 be 64 20 6d 3e 2a de 7a 3e e7 bf 66 be
       -0.3160743 0.23156887 0.24498811 -0.22534142
000360 b6 5e be be d8 3a 54 be 60 55 2d be 02 8c 87 bd
       -0.37181634 -0.20725572 -0.16927099 -0.06618501
000370 ef 6b aa be ac 8e 93 be 18 83 bb 3e ea 6d 06 be
       -0.33285472 -0.28819788 0.36623454 -0.13127866
000380 2e 1a 8a be 8f 69 7f 3e d5 d2 ce bd f2 a9 b6 3e
       -0.269731 0.24942611 -0.10098807 0.35676533
000390 18 54 b7 3e 77 8e 30 3e db c9 2b 3c 2a 99 a9 be
       0.35806346 0.17241846 0.010485138 -0.33124667
0003a0 6e 2c ab 3e 0d 2c 4c be 52 c8 be be 64 60 a6 3e
       0.33432335 -0.19938679 -0.37262207 0.32495415
0003b0 77 4e 21 be 93 6f 60 3e d7 ba ba 3e b8 d7 03 bd
       -0.15752588 0.21917562 0.36470672 -0.032188147
0003c0 06 6d a2 3e dc 98 2a be 1d d2 80 be 02 3c 6f 3e
       0.31723803 -0.16659874 -0.25160304 0.23362735
0003d0 c4 d2 78 bd e9 f2 33 be ac 79 ee 3d 31 df 46 be
       -0.060747877 -0.17573132 0.11644301 -0.19421078
0003e0 0d 48 dd bd ea 0a 0b 3e d7 4c eb 3b 5b 5f 2b 3e
       -0.10804758 0.13578382 0.007180791 0.16735594
0003f0 7f 9b a4 bd 0f 57 ce 3d e2 49 a0 3e 89 e3 c6 3e
       -0.08037471 0.10075199 0.31306368 0.3884547

weight f4 [128, 512]
000000 3e e5 fa bc ac 6c 33 3e ce 5d 9e 3d 28 f3 0a be
       -0.03062689 0.17521924 0.077327356 -0.13569319
000010 cb c8 43 3d 2e fc 68 be 7f 77 6b bc 37 17 ac 3d
       0.047798913 -0.22752449 -0.014371752 0.084028654
000020 05 af 07 be 65 25 07 3e 80 92 84 be 6e 39 fb bc
       -0.13250358 0.13197859 -0.2589302 -0.030667033
000030 97 b1 e8 3c 34 1f c4 bd 2c 37 b2 bd 65 bc f3 3d
       0.028404994 -0.09576264 -0.087019295 0.11901168
000040 cf 22 38 be 6b c5 9f 3d 71 4a b0 bd 80 5e 5d bd
       -0.17982028 0.07801326 -0.086079486 -0.0540452
000050 73 1a 1a be 7c d8 a3 3e 4c f3 09 bf 6b 97 52 bc
       -0.15049152 0.32001102 -0.53886867 -0.012853484
000060 af 86 92 3d 82 bc 35 3d 42 1f e3 3d 99 d9 09 bc
       0.07154595 0.04436923 0.11089946 -0.008413696
000070 02 ea 53 3d 4e cd 89 bd 30 a2 fb bd 31 d4 3e 3d
       0.05173684 -0.06728612 -0.12286794 0.04658908
000080 9c 7c b4 be 07 85 18 bc 94 9e 39 3e 9f ef 1a 3d
       -0.3525132 -0.00930906 0.18126899 0.037826177
000090 6e 88 14 3d 93 7c 02 bb 92 7e 5b bd a5 91 8d 40
       0.036262922 -0.0019910678 -0.053587504 4.424029
0000a0 4a 12 d3 3e 2a 36 8b bd 15 3d a5 3d 20 cc 50 bd
       0.4122489 -0.0679744 0.08068291 -0.05097592
0000b0 76 7c 2e be 90 0e 11 bd db 30 d1 bd dc 90 2d 3e
       -0.17039666 -0.03541428 -0.102143966 0.1694979
0000c0 00 49 a4 bd 93 6a f6 bd fd 92 d9 bd 29 8a 93 3d
       -0.08021736 -0.12032046 -0.10623739 0.07204086
0000d0 6d 84 17 3e 3d bb 5f 3e 67 27 ee 3d 38 73 01 3d
       0.1479661 0.2184877 0.11628609 0.03160402
0000e0 32 25 76 bd 59 4e 53 be 1b 42 a1 bd 8b 1a 00 bf
       -0.060094066 -0.20635356 -0.07873937 -0.500405
0000f0 57 ee 94 3e 18 61 54 3d 36 80 b9 bd f9 63 97 be
       0.2908809 0.05185041 -0.090576574 -0.2956846
000100 fa 41 0d be 7d 23 02 be c7 88 39 bd 72 33 ba bd
       -0.137947 -0.1270885 -0.045296457 -0.09091844
000110 7d b6 b2 3b d7 a6 0f be 2b 9b 27 bd af d6 ef 3d
       0.005453883 -0.14028488 -0.040919464 0.117108695
000120 8e 05 da 3d c6 02 08 be 01 15 26 bc cd f0 e1 bd
       0.10645591 -0.13282308 -0.010136844 -0.11032257
000130 82 e7 62 bd 6e 17 03 bc de a8 87 3d 01 94 1a bd
       -0.055396564 -0.008001192 0.06624006 -0.037738804
000140 88 46 42 3e 61 06 0e bd 39 87 e8 3d cf 4d 24 be
       0.18972218 -0.034674052 0.11353917 -0.16045307
000150 11 76 bf 3e 46 21 b4 b8 83 f2 cd bd a2 a9 35 3e
       0.37394765 -8.5892665e-05 -0.10056021 0.17740491
000160 58 9f c4 3d f1 10 93 3d f7 d5 02 3e 7a 22 20 3d
       0.09600705 0.07180966 0.12776934 0.03909538
000170 fb c9 35 bd b0 11 82 3b b8 a1 f0 3d 8b da b9 3e
       -0.044382077 0.0039693937 0.117495954 0.36299548
000180 94 be 40 3c 69 f4 0c 3e f8 18 74 bd 29 c0 74 3d
       0.011764187 0.1376511 -0.059594125 0.05975357
000190 ca 6a 1c bd 28 64 e1 be ff f5 88 bd fe 47 4d bd
       -0.03818778 -0.44021726 -0.06687545 -0.050117485
0001a0 fc 74 a3 3d 9a f6 2f 3e 34 7b 8f 3d 91 9a 2a be
       0.079812974 0.17183915 0.07005921 -0.16660525
0001b0 64 e2 b0 3d 81 46 b5 3e e5 81 9d bd 9c 02 b6 bb
       0.086369306 0.35405353 -0.07690791 -0.0055545103
0001c0 0c 50 d3 3a 66 54 d5 3c 2d 53 07 3d ef bd 55 3e
       0.0016121878 0.02604122 0.033038307 0.20873235
0001d0 9f 74 bf bd 3c 36 3a 3e dd 6e a1 bd ce d5 9f 3c
       -0.093484156 0.18184751 -0.078824736 0.01951113
0001e0 4c e7 79 3d aa 76 86 3d ab b5 84 bd b0 2a 15 be
       0.061011598 0.06565602 -0.06479963 -0.14567065
0001f0 6d 0c 1c 3d 45 70 7c bd 17 63 9d be f8 b0 f9 3d
       0.038097788 -0.061630506 -0.30739662 0.12191957
000200 5e 32 17 3c e2 e9 09 be cf 13 d9 bc 8b 5c 66 be
       0.009228317 -0.13468125 -0.026498703 -0.2249624
000210 8e 02 40 3e 85 83 86 3d cb ef 10 3e 5c 94 03 be
       0.18750975 0.06568054 0.14153974 -0.12849563
000220 5b c9 ce 3d 37 52 72 3e c7 44 ba be e4 9b 1f 3f
       0.10096999 0.23664175 -0.36380598 0.62347245
000230 c9 8b a0 3d 1c 5d d3 3c 43 92 85 bd e5 36 88 be
       0.07839162 0.025801234 -0.06522038 -0.2660438
000240 50 73 b2 3d a0 a8 54 bd c9 75 8e be bd 58 bc bc
       0.087134 -0.051918626 -0.27824238 -0.022991532
000250 34 82 19 3c 47 6e 53 3d ee 74 fd 3c bb 91 c6 be
       0.009369422 0.05161884 0.030939545 -0.3878306
000260 6b 28 7a 3e db 7a e8 bd aa 98 20 bc 89 9d 3a 3e
       0.2442948 -0.11351558 -0.009802023 0.18224157
000270 85 f2 97 bd cd b8 b5 3b 4c d2 55 3b 73 de e1 3b
       -0.07419304 0.0055457116 0.0032626567 0.006892973
000280 9c a9 eb be d6 83 dd 3c e1 71 6e 3d 03 64 0b 3e
       -0.4602784 0.027040403 0.058214072 0.1361237
000290 01 77 64 bc af 3d 11 bd 9a 71 3a 3e e5 56 97 bb
       -0.013944388 -0.035459217 0.18207398 -0.004618513
0002a0 e1 78 0f be cd a8 b9 3d f5 4b 46 3e 07 ee 75 3e
       -0.14010955 0.09065399 0.19364913 0.24016581
0002b0 84 d6 d3 3e c4 48 f8 3d 1e 08 42 3d 6f 87 51 40
       0.413746 0.12123254 0.047371022 3.2738912
0002c0 26 68 00 be c9 db 4e be 17 47 00 be 12 b0 6e 39
       -0.1253973 -0.20201029 -0.12527119 0.0002276304
0002d0 44 09 c4 3d 42 d0 3c 3e 28 3e 58 3e 00 2b f4 3d
       0.0957208 0.18438819 0.2111746 0.11922264
0002e0 8b 01 33 bd f8 9e 46 bd b6 25 5d bc a9 32 d7 3c
       -0.043702643 -0.04849145 -0.0134977605 0.026269274
0002f0 96 48 5b 3e 48 72 40 3e 7a af 10 be e0 fa 35 bd
       0.21414408 0.18793595 -0.14129439 -0.044428706
000300 52 2c 05 bd e7 7e 74 be 8c 64 42 3d b5 e0 57 bd
       -0.03251297 -0.23876534 0.04745917 -0.05270453
000310 e3 fe 3e 3e ad a7 be bd 64 95 05 3e ed 37 4b 3d
       0.18651919 -0.09309325 0.13045269 0.04961388
000320 c1 bc 03 bd 07 a5 b9 bc e9 8f 95 bd fa 1d 59 bc
       -0.03216243 -0.022661699 -0.07302839 -0.013251776
000330 f5 09 46 be 32 fd 50 3e 70 8c e9 bd 1d 9a 3c be
       -0.19339736 0.20409086 -0.114037395 -0.18418165
000340 e4 dc 27 3d 6b 67 8a 3d e4 6d 0d 3e 66 47 29 be
       0.040982142 0.06758007 0.13811451 -0.16531143
000350 3d 2e 88 3e 90 46 15 be ed f9 8b 3d 56 ff b0 bd
       0.26597777 -0.14577699 0.06834779 -0.086424515
000360 ff 84 82 bd 8b 3d 1c 3e f5 33 18 3e f0 0d ce bc
       -0.06373023 0.15257852 0.1486357 -0.02515313
000370 05 5b 26 3c 04 e5 5c bd 59 ae e1 bd 03 c4 e3 3d
       0.010153537 -0.053929344 -0.11019582 0.11121371
000380 ce 8a 04 3e 50 28 b3 bd 02 d0 25 bd 34 cb 11 bc
       0.12943575 -0.087479234 -0.040481575 -0.008898545
000390 75 ca 6e 3e 60 45 5b bd e9 62 e6 3c 8c 32 46 bd
       0.23319419 -0.053532958 0.028123336 -0.04838805
0003a0 ef 41 85 3c 93 b5 53 bd 9e 2e 3d 3e 1e 2d 55 be
       0.016266791 -0.051686835 0.18474814 -0.20817992
0003b0 d1 37 70 be 0b 15 b7 3d 1a 9a 3d 3d 4c ab 81 3c
       -0.23458792 0.089395605 0.04628954 0.015828751
0003c0 bc af a9 bc 5a 29 86 3b 80 7e 53 bd 15 1a 93 3c
       -0.02071368 0.004094285 -0.05163431 0.017956773
0003d0 2e 5d be 3d 7e 3d b2 3c 60 5a d8 3e 42 d5 97 3e
       0.09295116 0.021757837 0.4225645 0.2965489
0003e0 83 65 f1 bc 95 c5 63 3d 25 62 0e bd ed d4 b8 bc
       -0.02946735 0.05560835 -0.034761567 -0.022562468
0003f0 65 83 07 bd c6 05 d7 bd b5 2a 19 3d e3 1b 48 bd
       -0.033084292 -0.10499148 0.037394244 -0.04885472

bias f4 [128]
000000 6d 67 b9 bb 9f af 10 3d 1c 4d 59 bc 86 c5 ed bc
       -0.0056580813 0.035323735 -0.013263013 -0.02902485
000010 f4 68 0c 3c 08 60 b2 3b b0 58 02 3d 8f fd 78 bc
       0.008569945 0.0054435767 0.03182286 -0.015197172
000020 49 05 5d bd 8d 67 9e bc bc 31 97 bc c4 96 32 3c
       -0.05396012 -0.019336486 -0.018456332 0.010900203
000030 8d 3d 3f bd 55 c7 db 3c 2c 07 a3 3c 0f 63 23 bd
       -0.04668956 0.026828447 0.01990088 -0.03988939
000040 56 e9 9f bb 90 3e bc bc f7 55 2a bd b0 87 6d bc
       -0.0048801107 -0.02297905 -0.04158589 -0.014497682
000050 24 99 20 bd e2 fb 05 bc 2e f1 0a bb a0 ff 6f bd
       -0.039208546 -0.008177729 -0.0021200883 -0.058593392
000060 d7 5d 1f bb cf c8 a2 3b c1 e1 b1 ba 2f f3 06 3b
       -0.0024317408 0.004967786 -0.0013571308 0.0020591726
000070 63 d6 7a bd b7 9e eb 3c 13 5c e8 bc 8b 74 b2 3b
       -0.06123961 0.028762205 -0.028364217 0.005446022
000080 6d d3 e3 bb 2f 5f 88 3a 8d 73 6e bd 96 bb 14 bd
       -0.006952694 0.0010404343 -0.058215667 -0.03631171
000090 1b 79 07 bd 43 2b d6 bc de 11 85 bb 7d 9d 81 bd
       -0.03307448 -0.026143676 -0.004060968 -0.06328867
0000a0 8a c3 95 bc 06 d1 a1 bc 7f 40 a3 bc aa ef a7 bc
       -0.018281717 -0.01975299 -0.019928215 -0.020500023
0000b0 51 11 f7 bb 3b de c4 bc 1f cc 90 ba 5c 7d 02 bd
       -0.007539906 -0.024031749 -0.0011047161 -0.031857833
0000c0 94 60 aa bb 57 98 88 bb 5e fd da bc 5c d2 ba bc
       -0.0051995013 -0.004168551 -0.026732143 -0.022805385
0000d0 d4 0e 5d bd 31 cc 21 bd e8 06 ed bc 0e 39 81 bd
       -0.05396922 -0.039501373 -0.028933957 -0.063097104
0000e0 cd 4d 7f 3c a5 a5 86 bd 5c 35 db 3c f6 95 4f 3c
       0.015582514 -0.06574563 0.026758842 0.012670031
0000f0 60 41 b4 3c cc 82 0e bd 27 af 45 bd b5 a8 99 bc
       0.02200383 -0.034792706 -0.04826274 -0.018757204
000100 d2 fe eb bc 8f f5 2b bd 3e 22 21 bd 7e cb 27 bd
       -0.028808031 -0.04198223 -0.039339297 -0.04096555
000110 e3 de 89 bd c3 4b 87 bd 54 e2 41 bd 7b 16 c4 bb
       -0.067319654 -0.06606247 -0.047334984 -0.005984125
000120 72 2f 34 bd f0 13 7e bd 01 71 34 3b 80 79 87 ba
       -0.04399056 -0.062030733 0.0027533176 -0.0010335892
000130 b0 3d 24 bd a0 19 0f bb c0 78 a5 bc 26 e6 d2 3b
       -0.040097892 -0.0021835342 -0.02019918 0.0064361272
000140 4c 52 f2 bc 0d d1 9d bd 7f 6d 0e bd 01 e7 cc bb
       -0.029580258 -0.07705889 -0.034772392 -0.0062531237
000150 76 1a ff bc ff e4 6d 3c b8 1a 4d bd e3 3c 39 bc
       -0.031140547 0.014519929 -0.05007431 -0.01130602
000160 f3 d3 36 3c 33 e1 49 bd 75 bc 8a 3c 0d fc 0d bd
       0.011158931 -0.049287032 0.016935566 -0.034664202
000170 82 87 29 bd 34 6c 91 bb 15 35 83 3c d5 62 88 bd
       -0.041388996 -0.0044379476 0.016016522 -0.06659476
000180 5c e0 85 bc a6 7d 23 bd 28 8a 15 bd a5 11 cc bc
       -0.016342334 -0.03991475 -0.03650871 -0.024910757
000190 48 66 65 bc 9f 0c 68 bd 8f 67 9c bd d2 14 b0 bc
       -0.0140014365 -0.05665266 -0.0763694 -0.021494303
0001a0 6a b8 9b ba 16 39 b2 bc 2d 2d 24 bd 84 ce 88 bc
       -0.0011880521 -0.021755736 -0.040082145 -0.016700037
0001b0 f8 b5 af bc ee e7 32 3d a4 dc 8f 3c 9f 37 b0 bc
       -0.021449074 0.043678217 0.017561264 -0.021510897
0001c0 50 9b 2f 3c 2e 09 27 3b 40 de d0 ba 07 3a bb bc
       0.010718182 0.002548765 -0.0015935376 -0.022854818
0001d0 b2 0e 46 bc b8 7b 08 3d 58 1c fc ba 41 cd 83 bc
       -0.012088465 0.033321112 -0.0019234521 -0.016089084
0001e0 af ef 19 3d 5d fc ee 3b a4 e1 62 3c ff 12 7a 3b
       0.037582096 0.0072932676 0.013847742 0.0038158295
0001f0 e3 08 08 3d d9 82 c4 3c 21 0e b9 3c 8e 53 bf bc
       0.0332116 0.023988174 0.022589745 -0.023355272

weight f4 [104, 128]
000000 f7 ee 69 be e3 52 91 be 33 12 6f be 7a 02 af be
       -0.22845064 -0.2838355 -0.23346786 -0.34181577
000010 50 7e 75 be 3f 15 9a be e7 7a a9 be 06 87 68 be
       -0.23973966 -0.30094334 -0.3310158 -0.22707757
000020 2c 61 ca be bf a3 c0 be 04 2b 83 be 94 8a 4a be
       -0.3952726 -0.37624928 -0.25618756 -0.19779426
000030 e3 2d 72 be 22 b5 87 be 3f 13 d9 be 01 15 8a be
       -0.23650317 -0.2650538 -0.42397496 -0.2696915
000040 c2 d1 a9 be 19 98 d5 be c4 7a 56 be ce 71 c3 be
       -0.33167845 -0.41717604 -0.20945269 -0.38172764
000050 68 3b 7a be b0 e9 a2 be c1 f8 f1 be a8 fa aa be
       -0.24436724 -0.31818914 -0.47260097 -0.3339436
000060 f6 ff aa be 85 7f ac be 29 fa 8b be 96 5b 8b be
       -0.33398408 -0.3369104 -0.27339295 -0.27218312
000070 71 b5 82 be e8 81 99 be 8c 8c 18 be a3 b6 5a be
       -0.25529054 -0.29981923 -0.14897364 -0.21358733
000080 03 32 9b be b2 de b4 be 3e 53 e9 be 1e 6d d3 be
       -0.30311593 -0.35326153 -0.4557132 -0.41294187
000090 4c c4 a3 be 19 d3 89 be 34 50 a2 be 99 d8 5a be
       -0.319857 -0.26918867 -0.31701815 -0.21371688
0000a0 3d f9 42 be 29 94 d8 be 99 2d 8d be 56 76 9a be
       -0.1904039 -0.42300537 -0.2757385 -0.30168408
0000b0 f6 b1 a2 be 23 6c 76 be c1 a3 9d be 0a 3d b7 be
       -0.31776398 -0.24064688 -0.30788997 -0.35788757
0000c0 ed ec fe be 43 99 ef be c8 eb 3d be 33 ea 72 be
       -0.49790135 -0.46796617 -0.18546975 -0.23722152
0000d0 a4 48 9b be 34 dd 8e be 34 56 d0 be 7b 21 67 be
       -0.30328858 -0.2790314 -0.40690768 -0.22571366
0000e0 88 b2 55 be c2 a9 89 be cd 5a 8e be b9 ec ae be
       -0.20868886 -0.26887327 -0.2780365 -0.3416498
0000f0 3e 33 8f be 1a 04 62 be 53 32 c6 be 8b d7 14 be
       -0.27968782 -0.22071877 -0.3871027 -0.14535348
000100 e6 ba 6f be 18 5a 10 bf cb 3e ba be 49 41 82 be
       -0.2341114 -0.5638747 -0.36376032 -0.25440434
000110 15 d9 c1 be d0 ca 8a be 11 55 ad be 94 ba 94 be
       -0.37860933 -0.2710786 -0.33853963 -0.29048598
000120 aa 6c 42 be ee 06 92 be cd e0 e0 be 64 a7 ef be
       -0.18986765 -0.28520912 -0.4392151 -0.46807396
000130 83 cb 75 be aa ce a4 be 80 38 00 bf 12 3f 9a be
       -0.24003415 -0.32188922 -0.5008621 -0.30126244
000140 88 f2 94 be a4 d8 7f be 16 c2 d2 be ce 61 ab be
       -0.29091287 -0.24984986 -0.411637 -0.33473057
000150 55 16 87 be 22 d2 8f be 27 b1 e7 be 64 5a af be
       -0.26384225 -0.28090006 -0.45252344 -0.3424865
000160 73 ad 93 be fc 39 ac be 1d 19 bc be 14 df b4 be
       -0.2884327 -0.3363799 -0.3673791 -0.35326445
000170 c1 5c 75 be 76 90 63 be 17 5a 99 be 64 90 a4 be
       -0.23961164 -0.22223076 -0.29951546 -0.3214141
000180 eb b5 80 be 7b 2b cc be 12 ce f3 be e1 7b 80 be
       -0.25138792 -0.39876923 -0.47618157 -0.25094512
000190 ac f1 ad be 2e 32 87 be db 59 8f be 30 6a b7 be
       -0.33973444 -0.26405472 -0.27998242 -0.35823202
0001a0 a4 50 bf be c2 74 a9 be f4 50 ae be 3d c4 b3 be
       -0.3736621 -0.33096892 -0.34046137 -0.35110655
0001b0 99 ca cf be cf b1 a6 be 5e 78 e0 be 12 6d bb be
       -0.40584257 -0.32557532 -0.43841833 -0.36606652
0001c0 36 f4 e1 bd 01 d7 4c be b8 14 a0 be 6d 82 6d be
       -0.11032908 -0.20003892 -0.31265807 -0.23194285
0001d0 d9 2f 9e be fa 6f bd be 77 ac 9f be f5 9e 70 be
       -0.3089588 -0.36999494 -0.31186268 -0.23498137
0001e0 54 b8 ae be f3 13 bc be 99 9e 8d be 3d 21 93 be
       -0.34125006 -0.3673397 -0.27660063 -0.28736296
0001f0 af b6 b9 be 2b 67 43 be 08 1d 99 be b8 5a f3 bd
       -0.3627219 -0.19082324 -0.29904962 -0.118825376
000200 83 45 1b bf fb 77 da 3d 49 44 6b 3e 3e 33 37 be
       -0.6065294 0.10667416 0.22975267 -0.17890641
000210 49 66 1b bf 40 00 de bd c3 b9 b6 3d 1a 34 ea be
       -0.6070295 -0.108398914 0.0892215 -0.45742875
000220 e8 8e d7 be 3a e6 a3 3a ee 4a e2 bd 27 c6 88 bf
       -0.42101216 0.0012504526 -0.11049448 -1.0685471
000230 97 c4 33 3e 9a 02 d7 be 46 4b 4e bd cb a8 ec bf
       0.17555462 -0.41994172 -0.050364755 -1.8489012
000240 1b 57 48 bc 6c 27 4f 3e 81 24 0d 3e e7 20 81 bf
       -0.012227799 0.20229882 0.13783456 -1.0088166
000250 09 db a0 3d 4f c0 a1 be 3a 25 1a 3d 76 0f 04 3e
       0.07854278 -0.31592032 0.03763316 0.12896523
000260 71 d8 87 bf 04 42 ab 3d 6d 02 ee 3d d8 1d a9 be
       -1.0612928 0.08362201 0.116215564 -0.3303058
000270 a2 65 f3 bf 41 be df bf 82 86 85 be 11 2c 92 bf
       -1.9015391 -1.7479936 -0.26079184 -1.1419698
000280 ad a7 36 be 24 fe fb bd 77 9f 53 bf 59 a1 b1 be
       -0.178374 -0.12304333 -0.826652 -0.3469341
000290 93 ff 00 bf 83 d7 c1 be 44 76 fb bf b6 8e c5 be
       -0.50389975 -0.37859735 -1.9645467 -0.38585442
0002a0 ee aa 2a bf ed bc 73 be 0e fd bd bd eb 9c 56 be
       -0.6666707 -0.23802538 -0.09276782 -0.20958297
0002b0 25 b7 bc be 82 68 20 3c 6a 50 c8 3e 65 ad 4a bf
       -0.36858478 0.009790542 0.3912385 -0.7917083
0002c0 12 e3 8e bd 21 e5 ae 3d a9 0a 6d bf 4e bd 90 3d
       -0.06976904 0.085397966 -0.9259439 0.07067357
0002d0 83 6f f0 be 4f fe c7 bf a1 f5 b6 bc 0e f3 61 be
       -0.46960077 -1.5624484 -0.022333922 -0.22065374
0002e0 23 8c 01 be 90 14 7f be 23 2c c5 3d 0b f1 3c bb
       -0.12651114 -0.24910188 0.09627559 -0.0028830196
0002f0 77 98 fe bb 5c fa b8 3d 71 ff 44 be e0 3c 9e bf
       -0.00776964 0.09032127 -0.19238068 -1.2362328
000300 c7 0c 2a be f1 fa 2a bf 0a d6 91 bc cb b9 a3 bf
       -0.16606437 -0.66789156 -0.017802257 -1.2791075
000310 45 04 de be 8c 51 6d c0 99 06 ac bf 81 7a df 3c
       -0.43362632 -3.7081022 -1.3439513 0.027280094
000320 a1 ef 6e c0 c7 6c 75 bf 2c 98 da 3d 3e b2 01 bf
       -3.7333758 -0.95869106 0.10673556 -0.506626
000330 a6 c2 e3 bf b6 ac 80 bd a3 6b 91 be 7e 5b b4 3d
       -1.7793777 -0.06282942 -0.28402433 0.08806513
000340 5b 33 9f be 04 5b df bf ae 43 35 bf 50 41 ab 3d
       -0.3109387 -1.7449651 -0.70806396 0.08362067
000350 23 d1 58 3e c8 de aa bf e6 a3 d8 bf 0f f0 1a c0
       0.2117353 -1.3349237 -1.6925018 -2.420902
000360 37 15 9b bf dc cb 0b bd 44 db f4 3d c5 c4 4c bf
       -1.2115849 -0.034129962 0.11955884 -0.79987746
000370 f6 ff 1c 3e 4c 92 e0 be ab 87 f0 bf 00 f3 02 be
       0.15332016 -0.43861616 -1.8791403 -0.1278801
000380 bf b1 d5 bf 90 22 5b 3d 58 22 f0 3c d8 29 1b c0
       -1.6694869 0.05349976 0.029313251 -2.424429
000390 58 0a ab 3d ff d4 3f c0 cb 8f 74 be c8 e2 d6 3d
       0.08351582 -2.9973752 -0.23882978 0.10492474
0003a0 7f 4a 9b 3d 23 29 2a be 76 f7 bc 3e a1 f9 dd bf
       0.075825684 -0.16617255 0.36907548 -1.7341806
0003b0 35 93 00 c0 74 84 8d 3c b0 b5 d6 bd dc d9 92 bd
       -2.0089848 0.017275073 -0.10483873 -0.0717046
0003c0 7d 43 8e bf 7b 38 8f 3e 07 1c c7 be b8 20 aa bf
       -1.1114346 0.2797278 -0.3888857 -1.3291235
0003d0 4a 05 96 3d cb 85 e7 bc ba 28 9f be 9b fd f6 be
       0.073252276 -0.02826204 -0.3108576 -0.4824036
0003e0 d6 42 8c bf 03 24 c3 3c 83 5c 74 bf 11 84 00 be
       -1.0957897 0.023820883 -0.9545366 -0.1255038
0003f0 55 18 c8 3d 0c fb 49 c0 29 83 50 bf 16 20 0a c0
       0.09770266 -3.1559477 -0.81450135 -2.1582084

bias f4 [104]
000000 24 7f e8 be 56 c2 23 3c ed bc 52 3e ab a5 ab be
       -0.454095 0.009995064 0.20579882 -0.33524832
000010 04 4a 30 3e 0b 30 21 bf 92 0a 97 bf 7f 20 d9 3d
       0.17215735 -0.6296393 -1.1800101 0.10601901
000020 ef cc 9c be 31 7f 3f be e1 7a dc be 05 dc e8 be
       -0.30625102 -0.18700863 -0.430625 -0.45480362
000030 17 bf 6b 3e d2 39 aa be 6e a7 e0 be 77 ab 94 be
       0.23022114 -0.33247238 -0.4387774 -0.29037067
000040 cd f2 cc be 34 13 cf bd 7a 6e 9f be 7c ba 3d 3f
       -0.40028992 -0.101110846 -0.31138974 0.7411268
000050 a3 c1 ea be bd f1 21 3d 2a dd a1 be e3 6b fc bd
       -0.45850858 0.03953718 -0.31614047 -0.12325265
000060 3b 7b 4f 3e 02 e7 9b bf 3b e5 f6 3d 8e 56 4c bd
       0.20261852 -1.2179873 0.12055441 -0.049887232
000070 21 46 2f be 34 ed 3d bf 5e dd c3 be 0d 5b 86 be
       -0.17116596 -0.7419007 -0.38254827 -0.2624134
000080 c9 ed ca be d1 ef 76 be 14 16 09 be 1d 31 da 3e
       -0.3963454 -0.2411492 -0.13387328 0.42615595
000090 4e f9 8a be ac 33 23 3e d0 93 04 bf 37 35 ba 3d
       -0.2714333 0.1593768 -0.51788044 0.09092181
0000a0 97 d3 8a bb ae 45 fe 3e 3a f2 65 bd f9 13 c7 be
       -0.0042366493 0.49662536 -0.05613921 -0.38882425
0000b0 44 58 84 3e eb 27 40 3d dc 5d 0b 3c b1 a9 e3 3e
       0.2584859 0.04691307 0.008506265 0.44465402
0000c0 69 c0 7c 3d a4 64 a1 be e5 13 a8 3e e7 0a 63 bf
       0.061706934 -0.31522095 0.32827678 -0.8868851
0000d0 a2 45 8d be 59 02 ca 3e 7d 0f e5 3d 3c 70 da be
       -0.27592188 0.39454916 0.11184595 -0.42663753
0000e0 4b 0e 05 bf 86 92 c5 be bd 71 2b 3f cf 3e 20 bf
       -0.51974934 -0.3858835 0.66970426 -0.6259584
0000f0 95 3d ac be 84 c4 a7 bd 35 03 1d 3e aa 5f d1 be
       -0.33640733 -0.08191779 0.15333255 -0.40893298
000100 1b 30 c2 be ae 86 05 3f 17 b7 3b 3e 41 2f b0 bd
       -0.37927327 0.5215863 0.18331562 -0.08602763
000110 d0 26 e0 be 09 bf ca be 5e 06 ee be 6f 4b a6 be
       -0.43779612 -0.39598873 -0.46489233 -0.32479426
000120 85 e0 86 3e 36 3d 22 be fb 66 3d 3c 61 61 05 3f
       0.2634317 -0.15843663 0.011560197 0.52101713
000130 43 2e bb 3e 73 5e e2 3d 50 d3 c0 be cf 9b 97 3e
       0.36558732 0.11053171 -0.3766122 0.2961106
000140 1c 76 8e bd df 1c 03 bd 28 29 ce 3b 26 95 05 bf
       -0.06956121 -0.032009955 0.0062915273 -0.5218071
000150 f9 a3 64 3d 74 4f 30 3e 32 bf a2 be 33 36 e6 be
       0.05582044 0.17217809 -0.31786495 -0.44963226
000160 69 9e b5 3d 83 81 c4 be 9f 25 36 bf 8a b1 de be
       0.08868105 -0.3838006 -0.71151155 -0.43494827
000170 05 f2 6e bf bb 2c 4f 3e 21 51 2e 3f 38 8e 31 3f
       -0.9333804 0.20231907 0.6809254 0.69357634
000180 28 26 53 be d9 c4 cf be 9a 34 bc 3d db 9f 45 3d
       -0.20620024 -0.4057987 0.091897205 0.048248153
000190 eb fc db 3e 07 1f 38 be 4f e6 1e 3f 44 7a 0e 3f
       0.429664 -0.17980586 0.62070173 0.5565531

weight f4 [512]
000000 74 fa 29 3f 88 15 31 3f 90 06 c1 3f 11 7c e0 3e
       0.66397786 0.6917348 1.5080128 0.43844655
000010 14 91 47 3f 0b a0 f6 3e 1e b2 0c 3f a1 53 32 3e
       0.77955747 0.48168978 0.54959285 0.17414714
000020 e2 95 42 3f 40 af 2c 3e 5f 26 5c 3f 2f 04 1e 3f
       0.76009953 0.16863728 0.8599605 0.61725134
000030 ba 9c 03 3f 38 40 00 3f 26 e6 7d 3e 26 a1 ab 3f
       0.5141102 0.5009799 0.24794826 1.3408554
000040 e5 2a 35 3f d4 5e 03 3f ee ae a9 3f 22 fd 0f 3f
       0.70768577 0.5131657 1.3256509 0.56245625
000050 71 62 8b 3f 7f 68 6d 3f 9f 60 86 3f 00 47 a1 3f
       1.0889417 0.92737573 1.0498236 1.2599792
000060 1f 86 13 3f df 7f 54 3f 86 20 01 3f 48 62 14 3f
       0.5762653 0.83007616 0.5044025 0.57962465
000070 95 33 f6 3e a8 ea 5a 3f e4 70 19 3f be ae 68 3f
       0.4808623 0.8551431 0.5993788 0.90891635
000080 fa d2 79 3f 77 15 e6 3e 21 90 a5 3e 0b 77 19 3f
       0.9758755 0.4493825 0.32336524 0.5994727
000090 ea 23 08 3f 8b 4e 10 3f 74 e8 09 3f 7b 62 89 3f
       0.531798 0.5636985 0.5387032 1.0733179
0000a0 b1 f6 8c 3f 76 2c 3b 3f 81 21 1d 3f 92 d0 b9 3e
       1.1012784 0.73114717 0.6137925 0.3629194
0000b0 95 9b 44 3f b1 f5 91 3f de 15 91 3e 37 eb 9b 3f
       0.767999 1.1403104 0.28336996 1.2181157
0000c0 ba af 5e 3f 04 79 13 3f a6 dd 01 3f 9b f4 fe 3e
       0.8698689 0.5760653 0.50728834 0.49795994
0000d0 73 31 e7 3e 0a 54 51 3f 10 2f 2d 3f fc 62 30 3f
       0.45154914 0.8176886 0.67649937 0.6890104
0000e0 40 cc 60 3f 11 0a 74 3f 7a a2 d0 3e 75 61 2c 3f
       0.8781166 0.9532786 0.4074896 0.6733621
0000f0 74 33 55 3f 61 7b 23 3f 2c 21 99 3f 77 f9 18 3f
       0.83281636 0.63860136 1.1963248 0.59755653
000100 01 c5 25 3f 67 97 ad 3f e4 f2 20 3f 95 70 2a 3f
       0.6475373 1.3561829 0.6287062 0.66578037
000110 68 2a f6 3e 5f 47 73 3f 94 d7 8e 3f 1c 6f e3 3e
       0.48079228 0.9503078 1.1159539 0.44420707
000120 87 a4 8c 3e cd a0 04 3f 6f 50 2e 3f 88 73 7d 3f
       0.27469274 0.5180786 0.6809148 0.9900441
000130 01 7d 03 3f 7d ae 11 3f b5 2e 19 3f 06 1d 24 3f
       0.51362616 0.56906873 0.59836894 0.64106786
000140 fb b6 b2 3f 96 56 33 3f 0b 54 94 3f d5 f6 36 3f
       1.3962091 0.70053995 1.1588148 0.71470386
000150 f9 e6 66 3f 72 aa 31 3f ee a6 94 3f 3e f4 25 3f
       0.90196186 0.69400704 1.1613443 0.6482581
000160 06 c3 2d 3f 6e 57 00 3f 89 1c fc 3e 8d 68 ba 3e
       0.6787571 0.5013341 0.4924052 0.3640789
000170 43 1d 0f 3f a5 2f 05 3f fb d4 af 3e 7e 4b 1f 3f
       0.55904025 0.52025825 0.3434218 0.62224567
000180 6d aa 14 3f c5 56 28 3f c1 97 4f 3f 57 ce 08 3f
       0.5807255 0.657574 0.81090933 0.5343985
000190 07 26 16 3f 0f 49 4c 3f c0 d3 33 3f 19 5d 05 3f
       0.58651775 0.7979898 0.7024498 0.5209518
0001a0 1e 36 70 3f 0e 9c 38 3f 0c 4b 4e 3f db 84 00 3f
       0.93832576 0.7211312 0.8058326 0.5020272
0001b0 cf 36 51 3e fe 59 3b 3f 40 5c e1 3e 53 b8 ba 3f
       0.20431064 0.7318419 0.44015694 1.4587501
0001c0 cc 7c 38 3f 76 9b 68 3f 1e da 56 3f 02 88 12 3f
       0.72065425 0.90862215 0.8392657 0.5723878
0001d0 e2 e2 01 3f 00 1d e8 3e 00 b9 5e 3f 80 c5 f2 3e
       0.5073682 0.45334625 0.8700104 0.47416306
0001e0 94 e1 c1 3e 21 56 1c 3f a7 e8 a9 3f 19 3c 0b 3f
       0.37867415 0.6106892 1.3274125 0.54388577
0001f0 27 af 06 3f c7 52 2c 3f 7b ca f1 3e 0e 55 1f 3f
       0.5261101 0.6731381 0.47224793 0.6223916
000200 1f 39 05 3f 99 1a 04 3f ad c1 16 3f 73 71 33 3f
       0.52040285 0.51603085 0.58889276 0.70094985
000210 73 1a 2d 3f 75 0f 15 3f d8 bd f2 3e fc 2f 37 3f
       0.67618483 0.5822671 0.47410464 0.71557593
000220 d7 0e 01 3f 2c 5f 91 3f 12 74 3b 3f 38 45 c3 3f
       0.5041327 1.1357169 0.73223984 1.5255499
000230 a4 60 83 3f c6 bf 16 3f 15 e2 33 3f 15 66 50 3f
       1.0263867 0.58886373 0.7026685 0.81405765
000240 15 2a 3c 3f 6e e7 b2 3e cb d2 bc 3e a9 0a 13 3f
       0.7350171 0.34942192 0.36879572 0.5743814
000250 59 7b 06 3f 0f 3f 42 3f f6 e3 b3 3e 74 b2 86 3f
       0.52531964 0.7587747 0.35134858 1.052321
000260 c4 3e cb 3e 78 ac 5e 3f c2 6e 67 3e 8a 25 29 3f
       0.39696324 0.86981916 0.22600845 0.66072905
000270 8b b3 5c 3f 8c 1f e3 3e 7d 0c 6e 3f 1b e3 09 3f
       0.8621146 0.44360006 0.92987806 0.5386216
000280 c7 d1 77 3f c4 6d 48 3f e8 82 79 3e 52 5a f4 3e
       0.9680447 0.7829249 0.24366343 0.4772516
000290 7c 1c 92 3e 67 ac 14 3f 11 bd 11 3f de cc d3 3e
       0.28537357 0.58075565 0.5692912 0.4136724
0002a0 b0 53 75 3e cb d5 4b 3f 7a cb c0 3e 90 89 80 3f
       0.23957705 0.796231 0.3765524 1.0041981
0002b0 dc ea 5a 3f 9d 24 00 3f 22 b6 2e 3e 9f 1e ad 3f
       0.85514617 0.5005587 0.17061666 1.352497
0002c0 a7 c6 0c 3f 21 b9 38 3f 40 b8 fe 3e f7 94 55 3f
       0.5499062 0.72157484 0.49749947 0.8343043
0002d0 ce 38 53 3f 83 0d bf 3e 21 6c 2c 3f e9 f6 98 3e
       0.8250855 0.37314996 0.6735249 0.29875877
0002e0 7d db e2 3e 58 69 2b 3f 27 f7 47 3f 58 ea c0 3e
       0.4430808 0.66957617 0.781115 0.3767879
0002f0 59 88 6e 3f 23 91 25 3f a4 b3 44 3f fb ae 98 3e
       0.931768 0.64674586 0.7683661 0.29821
000300 84 44 31 3f ed 02 4e 3f eb 09 07 3f 1f e6 25 3f
       0.6924517 0.80473214 0.5274951 0.6480426
000310 af fa fa 3e cf 90 10 3f 7e aa 95 3f cc 22 f3 3e
       0.4901938 0.5647096 1.1692655 0.47487485
000320 45 a8 cb 3e 27 2f d6 3e 62 73 3a 3f 0f 17 92 3f
       0.39776817 0.4183285 0.7283231 1.1413287
000330 00 02 ec 3e f6 3c 16 3f b0 c0 25 3f c7 68 02 3f
       0.46095276 0.5868677 0.6474714 0.5094113
000340 34 33 31 3f 54 d3 27 3f b6 d7 64 3f 5a d9 6f 3f
       0.69218755 0.65556836 0.8939165 0.9369103
000350 8a 3f e4 3e aa d2 2e 3f f7 a5 a7 3e b0 43 fe 3e
       0.44579726 0.682902 0.3274381 0.49661016
000360 15 39 46 3f 89 3f 02 3f cd b4 2c 3f dd c8 ff 3e
       0.7743085 0.50878197 0.6746338 0.49957934
000370 69 20 90 3e 31 f7 87 3d 41 66 29 3f db 90 06 3f
       0.28149727 0.06638945 0.6617165 0.5256478
000380 94 eb c1 3e 71 92 a9 3f 1a 22 54 3f f2 d3 cb 3e
       0.37875044 1.3247815 0.82864535 0.3981014
000390 e9 82 f0 3e fd a5 07 3f 23 c7 26 3f 7e 67 21 3f
       0.46974877 0.52987653 0.6514761 0.6304854
0003a0 59 80 1f 3f 82 22 11 3f d8 91 2a 3f c7 18 4d 3f
       0.6230522 0.5669328 0.6662879 0.8011593
0003b0 e2 fb 0a 3f 19 4b 25 3f 2d 9a fb 3e d2 8d 39 3f
       0.5429059 0.64567715 0.49141064 0.72482026
0003c0 76 81 f8 3e 71 4c c9 3e c5 12 80 3e 4a 86 91 3e
       0.4853627 0.39316133 0.2501432 0.28422767
0003d0 09 c2 50 3f ca 37 bc 3e 7a b3 48 3f 60 2c 3a 3f
       0.81546074 0.36761314 0.7839886 0.7272396
0003e0 3b 0d 58 3f 24 7b 64 3f fe a1 68 3d cb 08 24 3f
       0.8439519 0.892504 0.056795113 0.64075917
0003f0 a1 4d 27 3f 63 c9 03 3f a9 c8 06 3f 14 3a 7f 3f
       0.6535283 0.51479167 0.52649933 0.99697995

bias f4 [512]
000000 ab f1 8a bd 58 51 da be 72 4d a0 be fa d2 97 bd
       -0.06784376 -0.42640185 -0.31309086 -0.074132875
000010 ba 73 bf 3e b1 17 d1 be 1d cc 4b bd 6f f0 47 3d
       0.3739298 -0.40838388 -0.049755204 0.04881328
000020 9d b6 85 be 5f d7 4f 3d f2 1f a2 be 07 bb 26 be
       -0.26115885 0.050742503 -0.31664997 -0.16282283
000030 25 79 67 be 2e cd 25 be 21 04 82 be f6 91 9f bf
       -0.22604807 -0.16191551 -0.25393775 -1.2466419
000040 eb dd 18 bf fe 97 f5 3c d4 38 94 3e 42 5c fb bd
       -0.5971362 0.029979702 0.28949606 -0.12273456
000050 ee f2 b1 bd 56 ea 02 be 3f 24 b7 bf 79 20 a4 be
       -0.08688913 -0.12784705 -1.4307936 -0.32056025
000060 ef 86 f9 be 98 e3 c4 be f1 a8 10 3d c3 6b 86 3d
       -0.4873576 -0.3845489 0.035317365 0.06563523
000070 93 e9 db 3c 23 b7 15 3e 0d 7c 75 3e 6c ac 89 be
       0.026844775 0.14620642 0.23973103 -0.2688936
000080 fc 14 2d bf 81 87 4d bd 5f d1 ae bd 1a 41 a9 be
       -0.67610145 -0.050178055 -0.08536028 -0.3305748
000090 05 22 7f be c0 f7 ab be 32 f0 a4 bd 42 76 cc bf
       -0.24915321 -0.33587456 -0.08053626 -1.597359
0000a0 e2 dc 75 bf 85 85 a2 be 8b 75 a9 be 1c 8c fe 3c
       -0.96040165 -0.31742492 -0.3309749 0.031072669
0000b0 9b 16 12 be a3 9f 37 3d f4 e1 55 be e4 ca 25 bf
       -0.14266436 0.044829976 -0.20886976 -0.6476271
0000c0 b4 df f2 3c a9 5f 04 bf 59 5f 52 bd f9 44 72 3c
       0.029647686 -0.51708466 -0.05136046 0.014786952
0000d0 7c 6c 0f be d1 f4 c3 be 00 49 26 bf 31 cd 2f bf
       -0.14006227 -0.38272718 -0.6495514 -0.6867247
0000e0 5a 1c 9e 3d ed 3d 18 bf 8f 1a 7d be 1c c1 3d bf
       0.077202514 -0.5946949 -0.24717163 -0.74122787
0000f0 eb af 3e bf 42 43 89 3d db aa 48 be 88 d3 eb be
       -0.7448718 0.067022815 -0.19596426 -0.46059823
000100 e9 9e d7 be fa 30 b4 be ab 0d 19 bf 00 26 3f 3c
       -0.42113426 -0.35193616 -0.5978648 0.011666775
000110 9e dc f3 3d 4b c6 1f bf 8f e4 47 3e 84 74 f2 be
       0.11907314 -0.62411946 0.19520782 -0.4735452
000120 c4 4d d4 3c a2 6b e2 bd 43 49 7e 3e 80 d0 20 bf
       0.025915988 -0.110556856 0.24832635 -0.62818146
000130 3c 11 ac be a7 5a 18 be 3e 91 8e be 91 a2 89 bc
       -0.336069 -0.14878331 -0.27845186 -0.01680115
000140 a0 82 c4 bf c1 db cb 3d 2c 17 71 be 21 14 29 be
       -1.5352364 0.09954024 -0.23543996 -0.16511585
000150 91 4f 14 be 3f 69 c6 bb b3 d0 22 bd f0 16 f9 be
       -0.14483477 -0.006055027 -0.039749812 -0.48650312
000160 e3 18 4f 3d 1e 5c 2a bf aa 7b 1d bf 60 6a 36 be
       0.050560843 -0.6654681 -0.6151682 -0.17814016
000170 ec d6 c8 bd b5 94 1d be 37 71 0e bd 46 76 c0 be
       -0.09806618 -0.15388758 -0.03477594 -0.37590235
000180 09 de d5 be 57 40 ed be e9 e1 b4 3e 93 06 e7 3d
       -0.41770962 -0.4633815 0.35328606 0.11280551
000190 1e fb 90 3d 20 2e 5d 3d 05 20 3e 3e 86 60 7d be
       0.07079147 0.053999066 0.18566902 -0.24743852
0001a0 49 d9 8c be 61 eb 32 3e 5e 3b ce be 45 c7 de be
       -0.27509525 0.17472602 -0.4027967 -0.43511406
0001b0 aa 04 39 3d 1b a4 e0 be 3a 73 76 3c af fb 5d be
       0.045170464 -0.43875203 0.015042121 -0.21678041
0001c0 fe f0 d9 be 04 7f 37 bf 14 4a e2 be da a1 18 bf
       -0.42566675 -0.71678185 -0.44197142 -0.59621966
0001d0 a9 2b 88 3e 5c f5 07 bf 23 22 0d bf 61 4b a5 3d
       0.2659581 -0.53108764 -0.55130213 0.08071018
0001e0 99 50 57 be ae 1d fe bc 00 08 68 be 2f 00 66 3e
       -0.2102684 -0.031020012 -0.22659302 0.22461008
0001f0 cf f8 26 bd 46 c1 24 bf c8 d2 1e be 53 3e 86 bd
       -0.040764626 -0.6435741 -0.15510094 -0.06554856
000200 70 6e 98 be 19 08 a2 be 93 1f a8 be 15 73 e9 bd
       -0.29771757 -0.31646803 -0.3283659 -0.11398903
000210 bb 7b a2 be 15 24 8c 3e 02 3b 27 3e 19 f8 6a be
       -0.31735024 0.27371278 0.16331103 -0.22946204
000220 49 f6 5b 3e 95 49 7b be 94 e0 23 bf 2c 86 e4 bf
       0.21480669 -0.24539788 -0.64014554 -1.7853446
000230 ea 23 c3 be aa 7b 19 bc 1a 92 43 bf ec f3 8a be
       -0.38113338 -0.009367863 -0.7639481 -0.27139223
000240 65 df 94 be 38 59 f3 bd fd 5f 1b be ad 31 19 be
       -0.29076687 -0.118822515 -0.15173335 -0.14960356
000250 1f 0e ab be 2c f3 a6 bd 3f f3 45 be f9 50 10 3e
       -0.3340921 -0.0815185 -0.19331072 0.14093389
000260 00 69 0d be 30 14 13 be 60 a1 7d bd a7 1f 0f bf
       -0.13809586 -0.1436317 -0.061921477 -0.5590767
000270 86 9f 68 be c9 0c bf bd e8 d9 ad 3d d3 0f 0a bf
       -0.22717103 -0.093286105 0.08488828 -0.53930396
000280 ed a4 b3 bf 1f 8f 45 bf 3d bb b5 bd 82 25 cb 3c
       -1.4034706 -0.7717151 -0.088736035 0.024798159
000290 fc 3d 83 3d aa 98 38 bf c5 e2 9c be b8 cf 4f be
       0.06408307 -0.72107947 -0.3064176 -0.20294082
0002a0 bd 2c 04 bc 36 99 c9 be 14 86 83 be 45 1c 78 3d
       -0.008067307 -0.39374703 -0.2568823 0.060573835
0002b0 19 72 83 be a4 7f 82 be ac c4 cf bd 6e e9 f6 bf
       -0.25672987 -0.25488007 -0.10144934 -1.9289987
0002c0 53 4b 05 bf 4e 73 a3 be 1e ea 24 be 5f 3a 11 be
       -0.5206806 -0.31923908 -0.16104934 -0.14182423
0002d0 ac b3 4f 3f a6 37 69 be ba 60 e7 3d 05 a6 fb bc
       0.8113353 -0.22775134 0.11297746 -0.030718813
0002e0 93 d1 fd bd 55 0b 5e be fe 06 8d be 86 7d 7b bd
       -0.12393489 -0.2168401 -0.27544397 -0.061399005
0002f0 9f 5f 7c bf 2b ca 80 be c6 d0 69 3e c2 61 97 3c
       -0.98583406 -0.25154242 0.22833547 0.018479232
000300 0d b2 b7 bc 73 78 22 bf b1 6f 9c be 4a 01 2e be
       -0.022423768 -0.6346504 -0.30553964 -0.16992679
000310 a3 04 26 3e f3 b7 95 bd 6f 51 e1 3e a3 29 18 bf
       0.16212706 -0.07310476 0.4400744 -0.5943853
000320 1f 42 a7 3d 60 c9 91 3d ff 6d fb be 10 06 3d bf
       0.081669085 0.07118487 -0.49107358 -0.73837376
000330 af f5 be be ed 48 ee bd 78 e5 06 bf a3 a8 a3 be
       -0.37296817 -0.11635003 -0.5269389 -0.31964597
000340 bb d7 df bc b5 6c 31 be 72 0e 6c be 07 fc 9f 3e
       -0.027324548 -0.17326625 -0.23052385 0.3124697
000350 a3 41 9e be bd 13 08 bf 8e 26 ca 3d f7 bd 5a be
       -0.30909452 -0.5315512 0.09870635 -0.21361528
000360 f2 a6 6c bd 98 be f4 bd 3c 59 07 bf eb e8 a9 bc
       -0.0577764 -0.119504154 -0.52870536 -0.020740947
000370 dd da b2 3d 7e ce 09 bc 49 85 99 be f5 eb 0a be
       0.08733151 -0.008411048 -0.299845 -0.13566573
000380 b6 99 7a 3e 46 da 65 3e 99 cd 47 3d db 25 0e be
       0.24472699 0.22446546 0.048780058 -0.13881628
000390 55 70 03 3e 2e e4 1c bf a0 a3 16 bf 0e 43 df be
       0.1283582 -0.61285675 -0.5884342 -0.43605846
0003a0 2d f5 6e bd 8a cf 31 be a4 f9 ca 3d b6 84 55 bf
       -0.058339287 -0.17364326 0.099108964 -0.83405626
0003b0 b6 f0 58 bf 1c fd 6e 3d 43 8e 2f be c5 e3 98 bd
       -0.84742296 0.058346853 -0.17144112 -0.074653186
0003c0 9d dc 47 be 15 4f 5a be e0 b5 03 3e 5b c7 e3 bd
       -0.19517751 -0.2131923 0.12862349 -0.111220084
0003d0 e8 21 28 bf a3 4e 0f be 9f 89 84 3c 07 14 73 be
       -0.65676737 -0.13994841 0.016178904 -0.23738109
0003e0 07 ec 0b 3e 43 b6 e5 bc c6 60 c0 bd 19 ac 1e be
       0.13664256 -0.02804101 -0.09393458 -0.15495338
0003f0 2c 8c 39 bd 04 d5 f9 3d 47 d9 69 bd 74 49 4f 3e
       -0.045299694 0.12198833 -0.057091977 0.20242864
